tmp/tmp.pt (torch, 3207 bytes, 4 tensors)

a.module.weight f4 [16, 16]
0	0x3dba8fb8	0.091094434
1	0x3e3befb4	0.18353158
2	0xbdfd4788	-0.12367159
3	0xbe500e7e	-0.20318028
4	0x3d001600	0.03127098
5	0xbe0424b6	-0.12904629
6	0x3e644636	0.22292408
7	0x3e183bc8	0.14866555
8	0x3c7e7200	0.015530109
9	0xbe6727a0	-0.2257371
10	0x3af1fc00	0.0018461943
11	0xbd5cad80	-0.0538764
12	0x3c97de50	0.018538624
13	0xbde4c0c0	-0.11169577
14	0xbddbf410	-0.107399106
15	0xbd15e158	-0.036591858
16	0xbdf7f8d8	-0.1210801
17	0x3dccc6e0	0.0999887
18	0xbe000312	-0.12501171
19	0xbc5a4da0	-0.013324171
20	0xbe2d5370	-0.1692636
21	0x3b483c80	0.003055364
22	0x3e06e21e	0.13172194
23	0x3d81c2c0	0.06335974
24	0x3e0ada8c	0.13559932
25	0x3d4b1c50	0.049587548
26	0x3c20eb60	0.009821743
27	0x3c04fb80	0.008116603
28	0xbd1b8f20	-0.03797829
29	0x3e4e9b78	0.20176494
30	0xbd757278	-0.05992362
31	0xbdf98640	-0.12183809
32	0x3d71c208	0.059022933
33	0xbdc710e8	-0.097200215
34	0x3d054fc0	0.03254676
35	0xbd74ae18	-0.05973634
36	0x3db50fb8	0.08840889
37	0x3e66067e	0.22463414
38	0xbe5298f0	-0.20566154
39	0xbdea9054	-0.1145331
40	0xbe23b89e	-0.15988395
41	0xbe6ce31e	-0.23133513
42	0xbe0a1a7e	-0.13486668
43	0xbe637ed4	-0.2221635
44	0xbdcbc690	-0.09949982
45	0xbe6eeb64	-0.23331982
46	0xbe5549b0	-0.20828891
47	0x3e321fdc	0.17394966
48	0x3e6f784a	0.2338573
49	0xbcf24a40	-0.02957642
50	0xbc632260	-0.013863176
51	0xbd900888	-0.07032877
52	0xbe6da2d0	-0.2320664
53	0xbdd245a4	-0.10267189
54	0xbdf3ef88	-0.11910921
55	0xbca620d0	-0.020279318
56	0x3e7e2dbe	0.24822137
57	0x3e6a0d4e	0.22856638
58	0x3e6c1526	0.23054942
59	0x3e555a7a	0.20835295
60	0xbe709492	-0.23494175
61	0xbcd21a30	-0.025647253
62	0x3e4061be	0.18787286
63	0x3e4e3062	0.20135644
64	0x3e722662	0.23647454
65	0xbdac4a40	-0.084125996
66	0xbe45cb36	-0.193158
67	0x3c5d68e0	0.013513774
68	0x3c9757b0	0.01847443
69	0x3e1ee95e	0.1551871
70	0xbe5ba41c	-0.21449322
71	0xbdc074b4	-0.09397259
72	0x3e256d3e	0.16154954
73	0x3dad2f78	0.084563196
74	0x3d18f808	0.037345916
75	0x3db8c5c0	0.09022093
76	0x3e516628	0.20449126
77	0x3d6f0c48	0.05836132
78	0x3e015df6	0.126335
79	0x3e346f8e	0.1762068
80	0x3d1ab5d0	0.037771046
81	0x3e52a968	0.20572436
82	0xbdd44efc	-0.103666276
83	0xbdba533c	-0.09097907
84	0x3e6be452	0.23036316
85	0xbccdd840	-0.02512753
86	0xbe48f332	-0.19624022
87	0xbe2555d8	-0.16146028
88	0x3e0865d4	0.13320094
89	0xbd96d7d8	-0.07365388
90	0x3d879034	0.066193014
91	0x3d7b6830	0.061378658
92	0xbd82ce20	-0.063869715
93	0xbe4e973a	-0.20174876
94	0x3e302f66	0.17205581
95	0xbda90c84	-0.0825434
96	0x3e08c776	0.13357338
97	0x3e000c8e	0.12504789
98	0xbdd251c4	-0.10269502
99	0xbe2bbe38	-0.16771781
100	0xbe6f7ac2	-0.23386672
101	0xbdb3edac	-0.08785567
102	0x3e2c01e6	0.16797599
103	0x3dd24694	0.10267368
104	0x3e65d7ac	0.22445554
105	0x3e72dc6a	0.23716894
106	0xbc99e710	-0.018786937
107	0x3e459ca8	0.19298041
108	0x3e2ba232	0.16761091
109	0xbe1cda3e	-0.15317628
110	0xbc900cc0	-0.017584205
111	0x3cac95c0	0.0210675
112	0x3dfc367c	0.123150796
113	0x3e1e0676	0.15432152
114	0x3e319f6e	0.17345974
115	0x3d2791b0	0.040910423
116	0x3e725c54	0.23668033
117	0x3e1d5a4a	0.15366474
118	0xbe66b31a	-0.2252926
119	0x3daedd20	0.0853827
120	0x3d8bb4c4	0.06821588
121	0x3e383bba	0.17991534
122	0xbe3cda68	-0.1844269
123	0x3e37ca7e	0.17948338
124	0x3d3f3f18	0.04669103
125	0x3e42ec9c	0.19035572
126	0x3b8d7bc0	0.0043177307
127	0xbddfe294	-0.10931888
128	0x3dd231ec	0.10263428
129	0xbe374aa4	-0.17899567
130	0x3e75381a	0.23947182
131	0x3e2953f4	0.16535932
132	0x3e6b670c	0.22988528
133	0xbd34ba58	-0.044123024
134	0x3d245598	0.04012069
135	0xbe3fca22	-0.18729451
136	0xbe24dd1c	-0.16099972
137	0x3d485cc8	0.048916608
138	0x3e0b91d0	0.13629842
139	0x3e255362	0.1614509
140	0x3e73e9f4	0.23819715
141	0xbe04bb7a	-0.12962142
142	0x3da1c914	0.07899681
143	0x3e06f3ec	0.13178986
144	0x3d4a00d8	0.04931721
145	0x3e344270	0.17603469
146	0xbd6979b8	-0.057000846
147	0xbe111f9c	-0.14172214
148	0x3cbb1240	0.02283585
149	0xbe0b8ca0	-0.13627863
150	0x3e156352	0.14588669
151	0xbb005780	-0.0019583404
152	0xbe38ed1c	-0.180592
153	0x3e6e51ee	0.23273441
154	0x3e02d10a	0.12775055
155	0xbe5c49de	-0.21512553
156	0xbe736e64	-0.2377258
157	0x3db16a08	0.08662802
158	0xbd362f68	-0.044478804
159	0xbcee8f20	-0.029120982
160	0x3e5d0b4e	0.21586344
161	0xbd9aa5ac	-0.07551131
162	0xbdfd0384	-0.12354186
163	0x3dbe1ca8	0.092828095
164	0xbe71fc66	-0.23631439
165	0x3ddee800	0.10884094
166	0xbe7617fc	-0.24032587
167	0xbca48620	-0.020083487
168	0x3d7234a0	0.05913222
169	0xbe38d0d0	-0.18048406
170	0x3ddf1134	0.10891953
171	0x3d018198	0.03161773
172	0xba858a00	-0.0010188222
173	0xbe33ba22	-0.17551473
174	0x3e7945a0	0.24342966
175	0xbe4d7046	-0.2006236
176	0xbe5b5002	-0.2141724
177	0xbbb0f0c0	-0.0053997934
178	0xbe5bd786	-0.21468934
179	0x3e7b77c0	0.245574
180	0xbdd7bb68	-0.10533792
181	0xbe2d9ecc	-0.16955107
182	0xbd615ba0	-0.05501902
183	0x3c01f740	0.007932484
184	0xbe462656	-0.19350561
185	0x3e0156ce	0.1263077
186	0xbd7851c0	-0.060624838
187	0xbd950dc4	-0.07278016
188	0xbd81e4ac	-0.06342444
189	0xbe380504	-0.17970663
190	0xbe29c956	-0.1658071
191	0xbe12ec30	-0.14347911
192	0x3d9df70c	0.07713136
193	0xbdbb193c	-0.091356725
194	0xbd4c34f0	-0.049855173
195	0x3e05d652	0.13070038
196	0xbe1504da	-0.14552632
197	0xbe659aa2	-0.22422269
198	0xbe47ee18	-0.1952442
199	0x3c885120	0.016640246
200	0x3e3c4464	0.18385464
201	0xbe158b74	-0.14603978
202	0x3dae27bc	0.085036725
203	0xbdb33274	-0.087498575
204	0x3dfde57c	0.12397286
205	0x3d5e64d0	0.05429536
206	0xbe12cd16	-0.14336047
207	0x3dc69790	0.09696877
208	0x3d37bcf0	0.04485792
209	0x3c15db00	0.009146452
210	0x3de13e1c	0.109981745
211	0x3e00ff76	0.1259745
212	0xbd6b41b8	-0.05743572
213	0xbcdcc870	-0.026951045
214	0xbc2a7c60	-0.01040563
215	0x3e5acbea	0.2136685
216	0x3e57b864	0.21066433
217	0x3e54870e	0.20754644
218	0xbe4878d6	-0.19577345
219	0xbd952038	-0.07281536
220	0xbd8f3ee0	-0.06994414
221	0x3e682708	0.22671139
222	0x3e6f3b6a	0.23362508
223	0xbe7c5f5a	-0.24645749
224	0x3e366be0	0.17814589
225	0x3dd66368	0.10468179
226	0xbe2efb62	-0.17088082
227	0xbe7a3830	-0.24435496
228	0xbe01d626	-0.12679347
229	0x3e307e78	0.17235744
230	0xbdee8a1c	-0.11647436
231	0x3c892690	0.01674202
232	0xbe03c848	-0.1286937
233	0xbd8b82e8	-0.06812078
234	0xbe3b9746	-0.18319425
235	0xbda75c58	-0.0817191
236	0x3d4f6150	0.050629914
237	0x3e5d7104	0.21625143
238	0x3d5adfa0	0.05343592
239	0xbe73ebde	-0.23820445
240	0xbe43984e	-0.19101068
241	0x3e1f63e0	0.15565443
242	0x3e15a7d0	0.14614797
243	0xbe3c732a	-0.18403307
244	0xbdb7b2d0	-0.08969653
245	0x3e4538ac	0.192599
246	0xbdf36da4	-0.11886147
247	0x3d553eb0	0.052061737
248	0x3dfbbafc	0.12291524
249	0x3e454916	0.19266161
250	0xbb404b00	-0.0029341578
251	0x3e1ae418	0.15126073
252	0x3d068710	0.03284365
253	0xbd2190c0	-0.039444685
254	0x3e0a9160	0.13532019
255	0xbd8d8660	-0.069103956

a.module.bias f4 [16]
0	0xbe6d2532	-0.2315872
1	0x3e5328da	0.20621052
2	0x3e3fe11e	0.18738219
3	0xbe4fcc12	-0.2029269
4	0x3e13b1ba	0.14423266
5	0xbe26fd44	-0.1630755
6	0x3e7686f6	0.24074921
7	0xbaaebb00	-0.0013330877
8	0xbda0d0c8	-0.07852322
9	0xbe2aacf8	-0.16667545
10	0x3e5f8d94	0.21831352
11	0xbdcab684	-0.09898093
12	0xbde3c7e8	-0.111221135
13	0xbe4d613c	-0.20056623
14	0xbe195e78	-0.14977443
15	0x3dafd604	0.08585742

b.module.weight f4 [19, 7]
0	0x3e294cd8	0.1653322
1	0xbe899bdc	-0.26876724
2	0x3e435425	0.19075067
3	0x3e856108	0.2605059
4	0xbd6b88a0	-0.057503343
5	0x3ebca99f	0.3684816
6	0xbcc85268	-0.024453357
7	0x3e986b80	0.29769516
8	0xbe4a9521	-0.1978345
9	0x3e82ccb3	0.25546798
10	0xbeac9213	-0.33705196
11	0x3e6bb193	0.23016958
12	0xbe76bc25	-0.24095209
13	0xbe94433d	-0.2895755
14	0x3ddb0f58	0.10696286
15	0x3e746a0c	0.23868579
16	0xbe784ca9	-0.24247994
17	0xbdfc8f43	-0.123320125
18	0x3c892fb4	0.01674638
19	0x3cbb404a	0.022857804
20	0xbe49f53a	-0.19722453
21	0xbe737fd9	-0.23779239
22	0xbdbab379	-0.09116263
23	0xbe5a3417	-0.21308933
24	0x3e86dfe1	0.2634268
25	0xbe32042e	-0.17384407
26	0x3d76578f	0.060142096
27	0x3ea8a9b7	0.32941982
28	0xbe95fdb6	-0.2929513
29	0xbdbb6720	-0.09150529
30	0x3ea6e9a7	0.32600138
31	0x3e86e69d	0.2634782
32	0x3cbc5660	0.022990406
33	0x3d9c0c69	0.076195545
34	0x3dfcedaf	0.12350022
35	0x3eb0fd6b	0.34568343
36	0xbe2c5253	-0.16828279
37	0xbc58cb5b	-0.0132320775
38	0xbdd441af	-0.10364091
39	0x3e9ed8df	0.31024835
40	0x3bcbfb31	0.0062250127
41	0x3e10c69b	0.14138262
42	0xbeb583ed	-0.35452214
43	0xbe226370	-0.15858245
44	0xbd6d3d99	-0.057920072
45	0x3eb917c5	0.36150947
46	0x3eb3bb66	0.3510391
47	0xbe1abbab	-0.15110652
48	0xbe9c07e9	-0.30474785
49	0x3d74b1e5	0.059739966
50	0xbea7ca81	-0.32771686
51	0xbe28ddcb	-0.16490857
52	0x3e9fd2ee	0.31215614
53	0xbe4584b6	-0.19288906
54	0x3ea1e549	0.31620243
55	0xbd06696a	-0.032815374
56	0x3e7c4cdc	0.24638695
57	0x3eb6d754	0.35711157
58	0xbdbc13f9	-0.09183497
59	0x3e5fc378	0.21851909
60	0xbe6faa53	-0.23404817
61	0xbe0188ad	-0.12649794
62	0xbe28bc67	-0.1647812
63	0x3e97c972	0.29645878
64	0x3e8c8b03	0.27449808
65	0xbe215351	-0.15754439
66	0x3e78277a	0.24233809
67	0xbea279a9	-0.31733444
68	0x3dcef0b4	0.10104504
69	0x3dec90ae	0.11551033
70	0x3eb92ce9	0.36167076
71	0x3e631a03	0.22177891
72	0xbd97a742	-0.07404949
73	0xbdae6186	-0.08514695
74	0x3cbff06c	0.023430072
75	0x3d4d372c	0.050101444
76	0x3e2db42e	0.16963264
77	0x3e5466e1	0.2074237
78	0xbeaa26a2	-0.332326
79	0x3dbec5c8	0.093150675
80	0x3d9d61c9	0.07684667
81	0x3e6cd7cf	0.231292
82	0x3da4fda0	0.08056188
83	0xbea8eb49	-0.32992008
84	0x3e979b6f	0.29610774
85	0x3ebac146	0.3647558
86	0x3ddc6145	0.1076074
87	0xbe8bb884	-0.27289212
88	0x3dc87c6f	0.09789359
89	0xbe47d814	-0.19516021
90	0x3eb2edb1	0.3494697
91	0x3eaace46	0.333605
92	0xbd9a77fd	-0.07542417
93	0xbe28ff4a	-0.16503635
94	0x3db786ec	0.08961281
95	0xbe0a5488	-0.13508809
96	0xbeb03c53	-0.34421024
97	0x3e998138	0.299814
98	0xbe482f69	-0.19549336
99	0xbe25528c	-0.1614477
100	0xbe9e789c	-0.30951393
101	0xbe6608c4	-0.22464281
102	0xbe17611f	-0.14783143
103	0x3eac0770	0.33599424
104	0x3e057c10	0.13035607
105	0x3e937379	0.28799036
106	0x3b5e6d1a	0.0033939541
107	0xbe8437a2	-0.25823694
108	0xbd09de16	-0.033659063
109	0x3d91dee4	0.07122591
110	0x3e09cff9	0.13458242
111	0x3ebe6611	0.37187245
112	0xbc3db01e	-0.011577634
113	0x3e1d6d7d	0.15373798
114	0x3dd268fe	0.10273932
115	0xbdfc3977	-0.12315648
116	0x3e25fe28	0.16210234
117	0xbeb98416	-0.36233586
118	0x3d4d4002	0.05010987
119	0xbe6f34f1	-0.2336004
120	0x3dc5bb69	0.09654886
121	0xbea827fc	-0.32843006
122	0x3e743a63	0.23850398
123	0xbe962667	-0.29326174
124	0xbe875987	-0.2643549
125	0xbdecbba0	-0.11559224
126	0x3d7091a0	0.05873263
127	0x3e3c6c2e	0.18400642
128	0x3e794d12	0.24345806
129	0x3ebcc90a	0.3687213
130	0x3d17782e	0.036979847
131	0x3e217dca	0.15770641
132	0x3e7facc2	0.24968246

b.module.bias f4 [19]
0	0xbd9dbf61	-0.07702518
1	0xbdfc1540	-0.123087406
2	0xbebf83e7	-0.3740532
3	0x3dd23d62	0.10265614
4	0x3e07006c	0.13183755
5	0xbda4d9b2	-0.080493346
6	0xbeb316a7	-0.3497822
7	0xbe97aa37	-0.2962205
8	0xbea58cc7	-0.32333967
9	0x3e0c703a	0.13714686
10	0x3e482a31	0.19547345
11	0x3e8846a2	0.2661639
12	0x3e7f68d4	0.24942333
13	0x3ea62552	0.32450348
14	0x3e263a53	0.16233186
15	0xbe2ec0e7	-0.17065774
16	0xbe8c8c02	-0.27450567
17	0xbe27031e	-0.16309783
18	0xbdefdecd	-0.11712418
