ONNX_debug/export.onnx (onnx, 4177 bytes, 10 tensors)

layer1.weight f4 [10, 10, 1, 1]
000000 b7 1c 6a be a9 18 95 3e 65 24 9b 3d ce 5a 70 3e
       -0.22862516 0.29120377 0.07575301 0.23472139
000010 67 be e7 bd 64 29 63 3e 36 73 97 3d e3 a7 f2 3b
       -0.11315613 0.22183758 0.073950216 0.0074052676
000020 99 1e 7a 3e 70 44 fe 3c 8c 63 30 bd 99 f3 79 3d
       0.24425735 0.031038493 -0.043063685 0.06102333
000030 aa e6 07 3e 75 7c 9a be 0f b9 bb 3d ca 7d e3 3d
       0.13271585 -0.30173078 0.091661565 0.11107977
000040 ad e2 f4 bc 56 06 0b 3e 2c 67 8a 3e 90 3e 98 3e
       -0.029893244 0.13576636 0.2703184 0.2973523
000050 87 7c ed 3c 11 3a 30 3e c7 64 4b 3e 63 21 97 be
       0.028990043 0.1720965 0.19862662 -0.2951766
000060 09 79 da 3d 6a df 97 be 1b 0b 82 be 84 21 90 3e
       0.10667617 -0.2966264 -0.25399098 0.2815057
000070 99 ab ef bd dd 72 53 3e a4 c2 f8 bd 45 e0 3a be
       -0.117026515 0.20649286 -0.121465 -0.18249615
000080 84 6e db bd d5 32 8e 3e 5d 7e ae 3c 85 38 cd 3d
       -0.107144386 0.27773157 0.02130049 0.10020546
000090 85 76 a1 bd a6 cb 2b bb 0d 23 c4 bd de 49 83 be
       -0.07883934 -0.0026213913 -0.09576998 -0.25642294
0000a0 33 fb 1d 3e e8 85 43 bd 35 71 d0 3d 7f cb 11 3e
       0.15427856 -0.047735125 0.101778425 0.14237784
0000b0 58 1c 6f be 3d 77 11 be 31 1d cf 3d 32 22 59 3d
       -0.23350656 -0.14205642 0.1011299 0.053011127
0000c0 3e 96 18 be ef 6b 3e 3e e8 32 31 3e f9 ff 33 be
       -0.14901063 0.18595861 0.17304575 -0.17578115
0000d0 a1 d3 01 be 64 d8 7b 3d 67 98 88 bd 67 b8 b7 bd
       -0.12678386 0.061485663 -0.066696934 -0.08970719
0000e0 85 80 6e 3b 41 50 6c bd be 8d 8d bd 5c 33 a8 3e
       0.0036392522 -0.057693724 -0.06911801 0.32851684
0000f0 37 fa dc bd 1b af 63 bd a7 f7 ea 3d e4 26 a8 bd
       -0.10789912 -0.055586915 0.11473017 -0.08210543
000100 d4 0b 76 bd 63 b5 54 be 5e 09 4f be 67 0c 78 be
       -0.060069874 -0.20772319 -0.20218417 -0.24223481
000110 33 db a8 bd 65 c7 80 3e fa e3 c0 3d e7 6c a8 3e
       -0.08244934 0.25152126 0.09418483 0.32895586
000120 c7 de b2 3d e5 ac 50 be a8 26 6a bc 50 3c 33 3e
       0.08733898 -0.20378454 -0.014291443 0.17503476
000130 d8 91 30 3e b9 3e c2 3d c8 c8 87 be 1a 98 81 be
       0.17243135 0.0948462 -0.2652037 -0.25311357
000140 6f 1e 71 be bd d9 23 bd c8 49 b8 3c 0a d2 88 3d
       -0.23546766 -0.040002573 0.02249612 0.06680687
000150 d5 e3 03 be a1 0e c5 bd cb 94 59 be 17 8a 03 be
       -0.1287988 -0.09621931 -0.21248166 -0.12845646
000160 ac 37 0a bc 9d 66 90 3d 8c b0 21 3d fc c1 49 bd
       -0.008436125 0.07050822 0.03947501 -0.049257264
000170 20 c9 d7 3c 3d 30 88 be 1a 4f eb bd 8a 23 3f bd
       0.026341021 -0.26599303 -0.11489697 -0.046664752
000180 c7 e1 ec 3d b6 8b 3d be f0 4b a4 bc 75 fc 66 3e
       0.11566501 -0.18510327 -0.020055741 0.22557242

layer1.bias f4 [10]
000000 4e 1a 99 3e 4e da 58 3e 12 f9 1a 3e 87 6c 5b bd
       0.2990288 0.21177027 0.15134075 -0.053570297
000010 fe 41 80 be d8 38 72 3e 32 dc 99 3e 2e 1d 08 be
       -0.25050348 0.23654497 0.30050808 -0.13292381
000020 8a 41 9a 3e 9d c5 13 be
       0.30128127 -0.14430852

layer2_1.weight f4 [1, 10, 1, 1]
000000 b3 f1 cf bd 5f 68 9c bd c2 7d 48 bd 8f 41 84 be
       -0.10153522 -0.07637095 -0.048948057 -0.25831267
000010 38 ef 98 bd 9e 23 80 3e 78 b7 f2 bd 20 2e 74 3e
       -0.07467502 0.25027174 -0.118514 0.2384572
000020 11 4b a3 3e 53 4f 03 be
       0.3189321 -0.12823229

layer2_2.weight f4 [10, 1, 1, 1]
000000 1d 0c e4 3e 0d 61 ca be 75 ed 0c bf ee 5c 12 3f
       0.44540492 -0.3952717 -0.5504983 0.5717305
000010 29 79 c2 3d bf 75 c4 3e a1 7c b8 bd 86 04 e9 3e
       0.09495766 0.38371083 -0.09008146 0.45511264
000020 55 8a 89 be b9 14 3e 3f
       -0.2686335 0.7425037

layer2_2.bias f4 [10]
000000 34 56 d2 3e dd 33 5e 3f 9b 33 00 3e 61 3f ce be
       0.41081393 0.8679789 0.12519686 -0.4028273
000010 d1 81 04 3f 26 39 05 3f 1c b0 ac be d3 bd 9c bd
       0.51760584 0.52040327 -0.3372811 -0.076533936
000020 8d 34 10 3f f1 b3 53 bf
       0.56330186 -0.82696444

layer2_3.weight f4 [1, 10, 1, 1]
000000 34 02 79 be 98 e8 91 3e 13 19 27 3e ce 7e 06 3e
       -0.24317247 0.28497767 0.16318159 0.1313431
000010 7d 50 d9 bc a6 b5 3e 3e 2f bf 21 3e ea a8 1d be
       -0.026527638 0.18623981 0.15795587 -0.15396467
000020 67 33 4a 3e 4a d8 91 be
       0.19746171 -0.28485328

layer3.weight f4 [10, 25]
000000 cf 73 bb 3d f1 ce 93 bd ee 1f fc bc b6 15 93 bd
       0.09152948 -0.07217205 -0.030776944 -0.071818754
000010 97 8f cd 3c fa 40 e5 bd de 96 01 be 73 d8 78 3e
       0.025092883 -0.11194034 -0.12655208 0.24301319
000020 a7 14 1a 3e 15 da 5a bd 15 24 42 3e e2 72 ac 3d
       0.1504694 -0.053430635 0.18959077 0.0842035
000030 12 ce 2c 3d bd 14 5b 3d e5 87 be 3d fd 60 fb bd
       0.04218871 0.053486574 0.093032636 -0.122743584
000040 a0 c6 88 3d 2e 1c ea bd 6b 8d 18 bd 68 75 ce bd
       0.0667851 -0.11431156 -0.03724424 -0.10080987
000050 5c 55 b0 bd d7 f6 71 3e 36 8f 81 3b 24 f6 4e 3e
       -0.08610031 0.23629318 0.0039538397 0.20211083
000060 8f 03 19 3e 72 14 27 be f8 31 c5 bd 86 2e d2 3d
       0.14942764 -0.16316393 -0.096286714 0.1026278
000070 f4 07 33 bc fb d8 07 3e 73 23 f4 bd 9d 78 26 be
       -0.010927189 0.13266365 -0.11920824 -0.16256948
000080 d4 ed 11 3e 20 60 16 3d 41 7e 4c 3d 6d 25 37 3e
       0.1425088 0.036712766 0.049925093 0.1788537
000090 c7 f3 69 3d 06 06 5b 3d 8d 36 28 3e d0 cf 53 3e
       0.05711725 0.05347254 0.1642706 0.20684743
0000a0 e3 50 01 bc 88 64 87 bd e1 5b f3 bc 77 c8 0b 3a
       -0.00789282 -0.06610972 -0.029706897 0.0005332301
0000b0 5e 00 83 bd 28 2b 19 3e 38 3d 4d 3c fb 5d ab 3d
       -0.063965544 0.14957869 0.012526803 0.08367535
0000c0 79 48 2d be f1 d9 31 3e 79 07 3a 3e 8f 08 0c be
       -0.16922177 0.17368294 0.18166913 -0.1367514
0000d0 88 67 c7 bc 1a 60 4f 3d 02 c6 27 3e 4a 19 26 3e
       -0.02434136 0.05062876 0.16384128 0.16220585
0000e0 78 0b 1f be 83 bd 21 3e c0 c0 fc 3d 3b 79 14 be
       -0.15531719 0.15794949 0.12341452 -0.14499371
0000f0 4d aa 75 3d a1 5a 16 be 89 f5 de bc cf 1d 2e bd
       0.059976865 -0.1468301 -0.02721669 -0.042508896
000100 07 a5 ef 3d 89 30 25 be e3 5e 31 3d 30 19 33 3e
       0.11701398 -0.16131796 0.04330338 0.17490077
000110 d4 ad 3e 3e b4 bf d2 3d 87 4d 10 3e 36 60 5f bc
       0.18620998 0.10290471 0.14092074 -0.013633778
000120 cb 8c 63 bd 08 ef 52 3d 10 6f e2 bd 7c 7b fd 3d
       -0.055554193 0.05149749 -0.1105634 0.123770684
000130 b6 8f 03 3c b0 e6 a7 3d 07 ea 60 3d dc 5e 33 be
       0.008029869 0.08198297 0.054910686 -0.17516655
000140 06 b9 aa 3d 9b 27 39 be ca f7 ed 3d df 05 db 3d
       0.08336072 -0.18081515 0.11619528 0.10694479
000150 1a 71 8f 3d eb f4 cd bc 8e 5d 21 3e 3f 20 2c 3e
       0.07003994 -0.0251412 0.15758345 0.16809176
000160 31 30 a5 bc 4b 3d 11 be 14 f5 bf 3d c2 a4 36 3e
       -0.020164581 -0.14183538 0.09372917 0.17836288
000170 a6 07 9b 3d c7 1a bb bb a0 df 17 3e fe 68 f2 3d
       0.07569818 -0.005709979 0.148314 0.11836432
000180 03 c7 ae 3c 3b 18 11 be f1 49 ae 3d c2 44 9f 3c
       0.02133513 -0.141694 0.08510197 0.019441966
000190 32 40 ec 3d aa 20 10 3d d4 c2 c1 bd 70 ab 6d bd
       0.11535682 0.0351874 -0.09460989 -0.058024824
0001a0 0c 4e a4 bd ab b8 91 bd 43 8c 57 3e 2e 97 68 3e
       -0.08022699 -0.07115301 0.210496 0.2271392
0001b0 67 2a 4e bd 78 7d b7 bd 72 e5 b2 3d 34 1a 8c bd
       -0.050333407 -0.08959478 0.087351695 -0.06840935
0001c0 de bf 9a 3d 6e 5e 53 3e 0d 7f 85 3d 25 cb d7 bb
       0.07556127 0.20641491 0.06518374 -0.006585496
0001d0 cc 35 a2 bd eb 9f 39 3e 13 a6 52 3e b6 4b 40 bc
       -0.07920417 0.1812741 0.20571165 -0.011736801
0001e0 27 f8 51 3e 3f 03 ec bc b8 92 ac 3c a3 4a d3 bc
       0.20504819 -0.028810142 0.021066055 -0.025792425
0001f0 74 28 73 3e ce 9b 36 bd 29 d4 47 3d 26 10 ff bd
       0.237459 -0.04458218 0.048786316 -0.12454252
000200 ba a5 b0 3d c1 a5 dc bd a8 84 f4 3d 58 2a 0e bc
       0.0862536 -0.107738025 0.11939365 -0.008677088
000210 87 d4 42 bc ca 7b 1f 3d 16 b5 5f 3b db bc a5 bd
       -0.011891491 0.038936414 0.0034135035 -0.08092662
000220 de 2b dc 3d 3f ad 5e 3c 89 e8 71 3d 1d 66 96 bd
       0.107505545 0.01359111 0.059059653 -0.07343695
000230 bc c9 9e bd 0d 24 ab bb 51 80 8a bd 4e 52 1b bc
       -0.077533215 -0.0052228034 -0.06762756 -0.009480072
000240 7d 2b 22 3d de a5 7c 3e 4a c0 12 3d 83 7f 7d 3e
       0.039592255 0.24672648 0.035827912 0.24755673
000250 23 a1 e4 3d 59 d8 49 3e 8e df 30 3e 0f ab c2 bd
       0.11163547 0.19711436 0.1727278 -0.09505283
000260 f0 ae 06 bd 13 b1 d7 3d b5 9f c8 3d b2 41 06 3e
       -0.032881677 0.10531821 0.09796087 0.13110998
000270 ea 62 ad 3c 88 60 16 be 40 aa 3b bc a7 98 5a 3d
       0.02116533 -0.14685261 -0.011454165 0.053368237
000280 29 62 2a bd 12 cc be 3d 60 bc 58 3c c7 98 24 be
       -0.04159752 0.09316267 0.013228506 -0.16073905
000290 a4 3b 94 bd 89 4b cd 3d 88 6e d5 3d 63 ea 18 3e
       -0.07237938 0.10024173 0.10421473 0.14933161
0002a0 9b 98 12 3e 67 8f 5c 3d 30 e2 0a 3e ce 45 33 3d
       0.14316027 0.053847697 0.13562846 0.043767743
0002b0 22 5c a4 3d b4 29 f9 3d d5 bd 43 be c5 ea 7c bd
       0.080253854 0.12166157 -0.19115384 -0.06174733
0002c0 83 23 57 3c 30 40 8d bd a9 8f c5 3c c6 72 0e be
       0.013131025 -0.068970084 0.024116354 -0.1391097
0002d0 65 1b 03 3e 1a 94 cd bc 9c a3 b1 3c 85 87 32 3d
       0.12803419 -0.025095034 0.02168446 0.043586273
0002e0 cb 46 ea bd db 9f d6 bd a2 22 74 3e ba 80 95 3a
       -0.11439284 -0.10479709 0.23841336 0.0011406161
0002f0 97 1f 09 3d d9 5f 4c 3e 65 52 11 3e 2f 32 71 3e
       0.033477392 0.19958438 0.14191587 0.235543
000300 93 86 06 3e d7 e9 3e 3d 6c 2e 11 3e 93 36 f3 3c
       0.13137273 0.046609726 0.14177865 0.029689109
000310 54 32 aa 3c 73 b8 01 be d6 7e f3 bd 0c 3f 30 3e
       0.020775951 -0.12668018 -0.118894264 0.1721155
000320 66 9c 4d bc 92 aa f3 3d 35 00 24 3e c7 fb d0 bc
       -0.012549495 0.11897768 0.16015704 -0.025510682
000330 6f 32 db 3c 15 96 e8 bd 8d d4 04 be 18 c2 92 3d
       0.026757447 -0.11356751 -0.12971707 0.07165927
000340 44 1a 5c bd 7a 9f cc bb 50 d5 01 3e f6 4a 2d 3c
       -0.053735986 -0.006244597 0.12679029 0.010576954
000350 08 61 eb 3d 7e 2e f5 bd 92 03 cd 3c 43 d9 9b bd
       0.114931166 -0.11971758 0.025026117 -0.07609799
000360 0b f1 20 3e 05 1e 38 3e 98 8f ca bc fd 1f f2 bd
       0.1571695 0.17980202 -0.024726674 -0.118225075
000370 be 97 d7 bd cc 70 0c 3e e7 fe e7 3d 26 28 bd 3d
       -0.105269894 0.13714904 0.11327916 0.09236173
000380 5f 32 ed 3d 74 6a 79 bd 80 8e 53 3d 48 f4 cc bd
       0.11581873 -0.060892537 0.05164957 -0.100075305
000390 07 c1 50 3e a8 4c 4d 3e a6 80 f2 bd a9 5d f9 bd
       0.20386134 0.20048773 -0.11840944 -0.121760674
0003a0 7f 09 85 3e 71 7a 13 3e a0 09 ff bc 0f 79 82 3e
       0.25983807 0.14402176 -0.03113252 0.25482985
0003b0 60 05 d2 bd b3 ad b5 3c bf b5 b1 bd d6 1b 3c bb
       -0.102549314 0.022177553 -0.086772434 -0.0028703115
0003c0 a3 19 0b be c9 f1 c4 bc c9 10 b4 bd 0d 2f d3 3d
       -0.13583998 -0.024041073 -0.08792264 0.103117086
0003d0 0e 3f 85 3c aa eb 61 3e 93 11 7b 3d c3 53 c6 3d
       0.016265418 0.22062555 0.061296057 0.09683945
0003e0 81 5f 0c 3e 1c 8e 26 3c
       0.13708307 0.010165717

layer3.bias f4 [10]
000000 9a 72 eb bd 86 d2 3a 3e 3f 94 01 3e 2a 8f 48 3a
       -0.11496468 0.18244371 0.12654208 0.00076507276
000010 ab 59 07 be ad 48 e7 3d 5d c9 b1 3d 95 19 3e 3d
       -0.132178 0.11293159 0.08680985 0.046411116
000020 61 3b 1e 3e 48 02 c1 bd
       0.15452339 -0.09424263

onnx::Mul_39 f4 [10, 1, 1]
000000 5c ef 76 3f 8a c6 7c 3f d8 79 80 3f 99 01 78 3f
       0.96458983 0.98740447 1.0037184 0.9687744
000010 ed 74 82 3f 72 0c 77 3f ee 9e 81 3f 18 27 77 3f
       1.0191933 0.96503365 1.0126626 0.9654403
000020 4a f7 80 3f b3 c3 85 3f
       1.0075467 1.0450348

onnx::Add_40 f4 [10, 1, 1]
000000 89 aa bf bb 0f fd 96 bb b6 87 80 bb 62 ef 87 bb
       -0.005849187 -0.0046078037 -0.003922428 -0.0041484097
000010 93 ae 81 ba 6c 1d 8b 3b ee 48 12 bb 7b 76 92 3b
       -0.0009893946 0.0042454507 -0.0022321302 0.0044696904
000020 2a 8c 3e 3b 9c 86 b8 3a
       0.0029075244 0.0014078203
